code/model.pt (torch, 672571 bytes, 8 tensors)

conv1.weight f4 [32, 3, 3, 3]
000000 3f 9c f5 bd 71 f9 10 3e a3 37 f2 bd d4 19 02 bd
       -0.11992692 0.14157654 -0.11827018 -0.031762913
000010 d8 70 21 bd 47 a5 bb bd 2d be b2 3d 20 bf 7b 3d
       -0.039414257 -0.091623835 0.087276794 0.061461568
000020 d7 9e f3 bd 2f 61 0b 3d c8 90 54 bc fc 55 1f 3e
       -0.11895531 0.03402823 -0.012973972 0.15560144
000030 5a ee 88 3d 39 2d 35 be 6f e3 7c bc ad 7c 44 3e
       0.06686087 -0.17693032 -0.015435084 0.19188185
000040 c5 87 cb bb 11 be e1 3d 57 cb 15 be 00 cc e2 bd
       -0.0062112533 0.110225804 -0.14628349 -0.11074066
000050 80 f4 32 3e b0 1e 48 3d 45 66 72 bc 70 62 34 3e
       0.17476082 0.04885739 -0.014794891 0.17615676
000060 99 d9 37 3d 28 72 c5 bd 03 f1 3a be 07 61 33 be
       0.04488525 -0.09640914 -0.18256001 -0.17517482
000070 f0 d6 38 3c bd 18 12 3e 9d 3f b2 bc c7 50 07 3e
       0.011281714 0.1426725 -0.021758849 0.13214408
000080 54 68 0c 3e 83 26 d4 bd f5 56 13 3e 1d fd cb 3c
       0.13711673 -0.10358908 0.1438864 0.024900967
000090 b3 65 57 3c 47 87 3e bc c4 ef 09 be 15 af 73 3d
       0.013146806 -0.011628932 -0.1347037 0.059493143
0000a0 90 c6 09 be a0 05 4b 3d 0d a0 c4 bc 78 43 40 3e
       -0.13454652 0.04956591 -0.0240021 0.18775737
0000b0 cf 78 35 3d d1 02 4c bd 27 09 98 3d 7e ad 82 3d
       0.044304665 -0.049807373 0.07423621 0.06380747
0000c0 c5 32 36 3d e0 b4 33 3e a3 8d c3 ba 93 c1 cc bd
       0.04448201 0.17549467 -0.001491953 -0.09997859
0000d0 6f 1f 82 bd 4d 42 0a 3e 2f 96 9f bd f1 9c c5 bd
       -0.06353652 0.13501854 -0.07792317 -0.09649075
0000e0 91 b6 81 bd b3 9a fd bd 5d 18 f2 3d 00 05 00 be
       -0.0633365 -0.12383022 0.11821053 -0.12501907
0000f0 b5 46 4b 3e 30 d8 f5 bd d5 d7 d7 3d d8 e0 2a be
       0.19851191 -0.12004125 0.105392136 -0.16687334
000100 b8 94 a6 bd 55 84 a3 3d 40 6d c3 3d 0b fa 91 bd
       -0.081338346 0.07984225 0.09542322 -0.0712777
000110 e0 6b 59 bb 2f 1f 17 3e c0 ac 53 3d 42 39 a0 3d
       -0.003317587 0.1475799 0.05167842 0.07823421
000120 db c1 23 be ff 63 29 be f1 ee 5e 3e 59 f8 9e 3d
       -0.15991919 -0.16542052 0.21770836 0.07762212
000130 92 82 10 be ad d9 80 bc 7d 42 bd bd ed fa d4 3d
       -0.14112309 -0.015728796 -0.09241197 0.10399423
000140 e2 be a9 bc ad 18 1b 3e 0d 47 3b 3e 4c dc 89 3d
       -0.020720903 0.15146132 0.18288822 0.067314714
000150 ec 77 e0 bd b3 e3 d2 3c 5b 2f 52 3d bc b1 a2 bd
       -0.10960373 0.025743341 0.051314693 -0.079440564
000160 89 3c 57 3c c0 5a 29 bd 19 19 bd bd 1c f4 8c 3d
       0.013136991 -0.04134631 -0.092333026 0.06882498
000170 2d d8 4f bd 77 24 0f 3d f4 a2 43 bc 75 ff 21 be
       -0.05074327 0.034946885 -0.0119407065 -0.15820105
000180 4d 2d 30 3e 75 82 c0 bd 1c 92 3b be 9d 48 38 3e
       0.17204781 -0.09399883 -0.18317455 0.1799645
000190 77 a4 8c 3d 38 5a 4c 3e b8 c9 42 3e bd f4 26 be
       0.06867307 0.1995629 0.19022262 -0.16304298
0001a0 20 c7 32 3e f4 0e 23 3e 99 00 f8 bd 65 3d 02 be
       0.17458773 0.15923673 -0.12109489 -0.12718733
0001b0 33 d2 17 bd 7e db 03 bd a9 cd 36 be ea b0 1f be
       -0.037065696 -0.032191746 -0.1785189 -0.15594831
0001c0 93 94 e1 3c c7 d7 ba 3c 40 37 00 3e f0 91 e5 bd
       0.027536666 0.022807969 0.12521076 -0.11209476
0001d0 61 fa 36 3d 01 3d a8 bd 40 98 33 3e 05 b8 2c be
       0.044672374 -0.082147606 0.17538548 -0.16867073
0001e0 de 51 20 3e fd fe 89 3d ad 17 26 be 28 59 f6 bd
       0.1565623 0.06738088 -0.16219969 -0.12028724
0001f0 af 42 fc 3d f3 c9 96 bd 78 7d ba bd a3 e2 3d 3e
       0.123174064 -0.073627375 -0.091059625 0.18543486
000200 c7 65 9d 3d b9 c4 0c be 4f 39 9d bb b8 3d 2a be
       0.07685428 -0.13746919 -0.0047980915 -0.16625106
000210 5c 1d 49 3e 87 cf d8 bc 35 93 07 3e 77 27 5f b9
       0.19640106 -0.026466144 0.13239749 -0.00021281639
000220 af 81 c1 bc 8b b5 1a 3e f9 05 bc 3c 1c 15 1c bd
       -0.023621408 0.15108316 0.022952067 -0.03810607
000230 8b 7c ac bc 85 64 e2 bd 2f bc 23 3e cb 43 9a 3d
       -0.02105548 -0.11054329 0.15989755 0.07532462
000240 fc da 2f 3c 46 c0 0f 3e b8 bd b3 bd f0 fe c7 3d
       0.010733362 0.1403819 -0.0877642 0.09765422
000250 5d 63 a5 3d 20 45 bb 3d 37 82 92 3d 6f 82 69 3d
       0.08075593 0.09144044 0.07153743 0.057009157
000260 5f ff 9c 3d 6b 82 08 be 40 7e 76 bd 7f 01 13 3e
       0.07665896 -0.13331 -0.060178995 0.1435604
000270 70 2d ef 3d 0f 45 28 bd 84 14 b1 bd 10 92 dd bd
       0.116785884 -0.041081484 -0.08646491 -0.10818875
000280 60 63 2d 3c 7f d6 0b 3e 23 70 78 3d 71 63 00 be
       0.010582775 0.13656043 0.060653817 -0.12537934
000290 55 2c bd bd 05 2e 13 be a0 cb f3 3d b0 59 43 3e
       -0.09236971 -0.14373024 0.11904073 0.19077182
0002a0 7f 5b 13 3e dd 8d 22 3d b9 9d 5a 3d 57 63 aa ba
       0.14390372 0.039686073 0.053373072 -0.0012999576
0002b0 e1 06 e5 bd 04 f9 5b 3d fd ba c7 bd 57 4e ab 3c
       -0.11182953 0.053704277 -0.09752462 0.020911379
0002c0 81 70 00 bd 25 63 06 3e 4f 61 ea bd c2 1a 20 be
       -0.031357292 0.13123758 -0.114443414 -0.15635207
0002d0 07 6a 8c 3c 54 b4 02 be 2b ab 89 bd 2d 6f f3 3d
       0.017140402 -0.12764102 -0.06722101 0.118864395
0002e0 a5 da 11 3c 08 4f 18 be 30 b2 ac 3d 3f 06 f7 bd
       0.008902227 -0.14873898 0.08432424 -0.12061738
0002f0 f5 94 3a bd 9d ec 1f be 61 8c 06 3b 1b d5 08 bd
       -0.045552213 -0.15617605 0.002053045 -0.03340636
000300 a1 10 09 bd 3b 7f 4a 3d 18 76 6b 3d 88 26 5d 3d
       -0.033463124 0.049437743 0.05748567 0.053991824
000310 25 b8 aa bd 77 93 06 3d 73 55 01 3d 57 d1 07 3e
       -0.08335904 0.032855477 0.03157563 0.1326345
000320 5f f0 a7 3d 1b 12 0d be 43 1c 05 be 27 15 e4 3d
       0.08200144 -0.13776438 -0.12999062 0.11136847
000330 38 72 c4 bd 5b c2 80 3d d5 d0 cc 3d 69 27 a1 bd
       -0.09592098 0.0628707 0.10000769 -0.07868845
000340 d1 be 44 be cd cc d7 bd fd 37 24 3e e7 44 25 3c
       -0.19213416 -0.105371095 0.16036983 0.010087228
000350 92 24 08 be 86 05 17 be e3 2d 1b be c5 e0 3a be
       -0.132952 -0.14748201 -0.15154223 -0.18249805
000360 6d b9 46 3e 43 98 a5 3d 97 e2 a3 bd c4 e7 27 be
       0.19406672 0.08085682 -0.08002203 -0.16397005
000370 5c 82 02 3e 45 3b 36 3e 33 15 f9 bd 6c 13 28 3e
       0.1274504 0.17796047 -0.121622466 0.16413659
000380 75 7c 8f 3d 5d 1a 2b be 98 78 08 be 53 1c 42 3d
       0.0700616 -0.16709276 -0.13327253 0.047390293
000390 1f f6 f7 bd 90 d8 17 3d 3c 46 dd 3d 6f 3a 89 3d
       -0.12107491 0.037071764 0.10804412 0.067005984
0003a0 b8 80 94 bd 17 0c ff bc 7c 0d 22 3e a0 78 eb 3c
       -0.07251114 -0.031133695 0.15825456 0.028744042
0003b0 70 d7 3d be d3 91 a7 3c 08 5c 63 bd 19 20 12 be
       -0.18539214 0.020455277 -0.05550769 -0.14270057
0003c0 b3 c2 df bd b0 8b 25 3e 9b 4e 9c 3d 93 b3 43 3e
       -0.10925808 0.16166568 0.0763218 0.19111471
0003d0 55 1c 21 3d 39 07 28 3c 8d d5 2e be 2b ec a7 bb
       0.03933366 0.010255628 -0.1707365 -0.005124589
0003e0 e1 48 91 3d 3d 1d 0c 3e 95 0b 2a 3e 2f ff 1a be
       0.07093979 0.13683029 0.1660598 -0.15136407
0003f0 a0 24 9b bd 94 a3 80 3c c5 57 37 bd e9 be e1 bd
       -0.07575345 0.015703 -0.044761438 -0.11022741

conv1.bias f4 [32]
000000 ba 0d 0e bd f4 c5 e9 3d 3c 0a b1 3d 7a 38 88 3d
       -0.03468106 0.1141471 0.0864453 0.06651397
000010 2d 23 cf 3d e5 46 1a 3e df a4 0c 3c 2b f5 b7 3c
       0.10114131 0.15066107 0.00858423 0.022455772
000020 83 0d e7 bc 2d cc 1a 3e 25 0b d3 bc 01 36 ad 3c
       -0.028204685 0.1511695 -0.02576215 0.021143915
000030 a6 c1 99 3d a0 de 7c 3d 38 b8 4a bd 03 4c 66 bd
       0.07507639 0.06173575 -0.04949209 -0.056224834
000040 cf b0 53 bc 7d 23 40 be 15 58 c3 bd 6d 0a 03 3e
       -0.012920572 -0.18763538 -0.09538285 0.12796946
000050 b7 96 2f 3e c1 9f 4f 3d ab ce e7 3d 65 7a 22 be
       0.17147337 0.050689463 0.11318716 -0.15867002
000060 10 3b 31 3e de 21 a3 3d 25 92 e1 bb 1b 5b 35 bd
       0.17307687 0.07965444 -0.006883877 -0.044276338
000070 90 3e f2 3d 1d a7 93 bd a5 b7 94 bc 53 37 8a bd
       0.11828339 -0.07209609 -0.018153975 -0.067488335

conv2.weight f4 [64, 32, 3, 3]
000000 df 7a 71 3d c8 3f 19 bd c4 8e be bc f3 e9 12 3d
       0.05895507 -0.037414342 -0.023261435 0.035867643
000010 62 5e 28 3d 09 49 02 3d cc 74 90 3d fb 8f 3d 3d
       0.041105635 0.031807933 0.07053527 0.04627989
000020 99 b5 95 ba a5 3c cf 3c f9 2e 8f 3c 80 58 83 bc
       -0.0011421918 0.025297472 0.017478453 -0.016033411
000030 9f 1c 33 3d 63 51 be bb 24 09 3d bd 7b 46 ad 3c
       0.043728467 -0.005808042 -0.046151295 0.021151772
000040 01 8b 2b bd b0 f2 45 bd e8 33 63 3c f9 a0 13 3d
       -0.04188061 -0.048327148 0.013867356 0.036042187
000050 f9 41 9b 3c c9 d8 83 3d a7 31 84 3d 39 1c 89 3d
       0.018952357 0.06437833 0.06454783 0.06694836
000060 aa 47 21 3d 0b d6 c4 3b 2b 71 75 3d b0 86 4d 3d
       0.039374985 0.006006961 0.05992238 0.050177276
000070 93 66 02 3d 8f 72 47 bd bf 82 3d bd 73 26 05 3c
       0.031836104 -0.048693236 -0.046267267 0.008126843
000080 27 a7 81 3c f9 a8 10 3d 0e f1 20 bc cb bf ce 3c
       0.015826775 0.035317395 -0.009823097 0.025237938
000090 bc 33 53 3d 90 6f 2a 3d 83 26 09 bd d5 7d b3 bc
       0.05156301 0.0416103 -0.033483993 -0.021910587
0000a0 83 0b 94 3d 49 1f 82 3d a3 4a 04 3d 41 fd 0d 3b
       0.07228758 0.063536234 0.03229774 0.0021665844
0000b0 56 7e 9d 3c 77 70 b5 3b ea 01 91 bb 2e 03 16 3d
       0.01922528 0.0055370885 -0.004425277 0.036624126
0000c0 b8 d8 97 3c 44 3d 4e 3c fb 82 33 bd 7b 11 5b bd
       0.018535957 0.012587849 -0.043826085 -0.053483468
0000d0 1f 96 45 3d 1a f4 22 bd 69 eb 03 bd 82 36 01 3d
       0.04823887 -0.039783575 -0.032206926 0.031546123
0000e0 9d da 88 3d 0b 39 a4 bc 9d 57 7b 3d 77 84 90 3d
       0.06682322 -0.020046731 0.06136285 0.07056516
0000f0 71 49 a6 3c 75 08 ed bb 7d f4 15 bd a0 ea 3b bd
       0.020298691 -0.007233674 -0.036610115 -0.045878053
000100 1f 33 21 3d 3f b7 23 bd 9f 68 d4 3c 9e 0b 81 bd
       0.039355393 -0.03996968 0.025928793 -0.06301044
000110 f5 5d 55 bc 07 a8 64 bd a5 49 8c bd eb cb 0b 3d
       -0.013022889 -0.055824306 -0.06849984 0.03413002
000120 49 3a 36 3d 67 ae 80 3d a9 97 a8 3d cd c1 b1 bc
       0.04448918 0.062832646 0.08232052 -0.021698857
000130 01 df 9b 3d f3 e0 88 3d 49 f0 96 3d f8 b6 3b bb
       0.07610894 0.06683531 0.073700495 -0.0028642993
000140 2b a7 8e 3d 3b 24 b6 3c b3 39 85 3c 7f 41 d3 3c
       0.069654785 0.022234073 0.016262865 0.025788067
000150 ef be 2d bb d7 6c 72 3d d7 f5 be 3c ec 3f 96 3d
       -0.002651151 0.05918583 0.023310585 0.07336411
000160 e8 59 48 3d cc a7 88 3c 38 4f 4a 3d 0d f5 20 3d
       0.048913866 0.016681574 0.049391955 0.0392962
000170 2b a7 e4 3c 68 44 bd 3c 33 3c 02 3d ed c7 4b bc
       0.027911743 0.023103908 0.03179569 -0.012437803
000180 3b 7e 96 3c cb 73 06 ba eb 56 97 3d 35 09 a0 bc
       0.018370738 -0.0005128949 0.07389625 -0.01953564
000190 e9 62 45 bc 4b 5e 6e 3d 6a e8 81 3d 93 de 18 bd
       -0.012047508 0.058195394 0.063431576 -0.03732164
0001a0 dc d3 45 bd f1 e2 57 3b 41 ee 91 3b 6f 87 e1 3c
       -0.048297748 0.0032941664 0.004453451 0.0275304
0001b0 f8 b8 bd 3c 0d 3a dd 3c 5f a8 7a 3d 51 5c 88 ba
       0.023159489 0.02700522 0.061195727 -0.0010403489
0001c0 a1 80 37 3c 63 60 ba bc e0 dd 8e 3d f1 64 28 3c
       0.011200101 -0.022751039 0.06975913 0.010277973
0001d0 17 d2 1b 3b 8b 8b 96 3c 20 10 2a 3b 40 7a 09 3b
       0.0023776346 0.018377086 0.0025949553 0.0020977408
0001e0 43 bc 15 bd b8 0a f8 bb 29 ee d9 ba df 10 25 3d
       -0.036556493 -0.007569637 -0.0016626763 0.040299293
0001f0 b3 29 e7 bc 1d 17 07 bd ad 82 15 3d df 71 5d 3d
       -0.028218126 -0.032981027 0.036501575 0.054063674
000200 9b af 8d bc 2c 27 93 bc ac 19 0d ba 43 23 54 3d
       -0.01729565 -0.017963015 -0.00053825486 0.05179144
000210 d5 39 34 3d d2 b9 1b bd 8c e9 d2 bc 55 ae ca 3b
       0.044000465 -0.03801901 -0.02574613 0.006185333
000220 7f c8 88 bc 99 3e 1b 3d 15 a4 4e 3c bf 84 41 3d
       -0.016697166 0.037901495 0.012612362 0.047245737
000230 9b 40 8e 3d a5 64 b5 bc 7b c3 8b bc 29 c7 81 3d
       0.06945916 -0.022142718 -0.017060986 0.06336815
000240 28 c5 b4 bc 76 f3 24 bd 5f 78 90 bc 65 1d e7 bb
       -0.022066668 -0.040271245 -0.017635522 -0.0070530646
000250 6b 2b 4b 3d 19 1e b8 3b 2b a5 38 bd f3 10 7c bb
       0.049601953 0.0056188223 -0.04507939 -0.003846225
000260 48 ee d9 bc 81 5c 4e 3c 6f 26 80 bd 45 02 01 3b
       -0.02660288 0.012595297 -0.062573306 0.001968519
000270 dd 92 25 3d 84 4a 77 bd c7 31 13 3d f5 f8 5a 3d
       0.040423263 -0.060373798 0.035936143 0.05346008
000280 ed 85 7e bb 35 59 7d bd eb 42 44 3d 65 9d 42 3d
       -0.003883715 -0.061852653 0.04791538 0.047513384
000290 77 15 de bc 77 96 b6 3c 4b 82 a1 bc f9 38 45 bc
       -0.027109845 0.022288544 -0.019715449 -0.012037509
0002a0 ff da 1f bd d7 13 ac 3c 7c 13 c7 bc b9 b8 21 bd
       -0.03902721 0.021005554 -0.024301283 -0.039482806
0002b0 21 f8 05 3d 2b 67 9f 3d 7b 81 e0 3c 1d db 36 3d
       0.032707337 0.077833496 0.027405491 0.044642556
0002c0 9b f0 ec bc 94 f1 c3 bc 45 f2 13 bd d9 42 10 3c
       -0.028923323 -0.023918904 -0.036119718 0.008805
0002d0 38 20 fe 3b cc 60 60 bd 5d cb 60 bd c3 92 58 bb
       0.0077553056 -0.054779813 -0.054881442 -0.0033046461
0002e0 45 81 42 3d 97 88 7d 3d c5 0f 04 3d 18 aa 7c bc
       0.047486562 0.06189784 0.0322416 -0.015421413
0002f0 7c 73 31 bd 79 c1 27 3d 5d eb fd bc 7d 84 f3 bb
       -0.043323025 0.040955994 -0.030996019 -0.0074315653
000300 80 bc 4e bd 3b 27 53 3b e9 a5 40 3d c0 77 4a bb
       -0.050472736 0.0032219428 0.047033224 -0.003089413
000310 6b 68 3d 3d 1b 33 5c bd 44 c8 96 b9 35 a9 a1 3c
       0.04624216 -0.053759675 -0.0002875944 0.019734005
000320 81 66 bd bc f6 8e 9b bc 6c 71 e2 3c 25 b1 23 bd
       -0.023120167 -0.018989068 0.027641974 -0.03996386
000330 cd 10 8e bc e8 cf 08 bd 30 de 70 bd 74 8b f4 bb
       -0.017341996 -0.0334014 -0.058805645 -0.007462913
000340 cd 61 3d 3b 9b 50 1a 3d f6 c5 87 3c 18 ae 38 3d
       0.0028897405 0.037674528 0.016573887 0.045087904
000350 03 ad 80 bc 8d 3e e0 3c 50 33 4c bc 47 28 36 3d
       -0.015707498 0.027373577 -0.012463406 0.044472005
000360 24 53 cb 3b c0 8a 0d bd 80 61 f1 bc b5 8b d8 3c
       0.0062049795 -0.03455615 -0.029465437 0.026433805
000370 e8 c8 d9 3b 49 4e bf 3c 09 94 b6 bc a3 a2 85 bb
       0.0066462643 0.023352759 -0.022287386 -0.0040782257
000380 43 51 eb bc 8c 7d 4e bd a5 b4 fe 3c 4b 52 4f 3d
       -0.028725272 -0.0504127 0.031091997 0.05061559
000390 7b f6 32 bd a1 15 06 3d d1 5a 18 3d 33 af 69 3d
       -0.043692093 0.03273547 0.037195984 0.05705185
0003a0 75 f1 85 3b 2c 20 ae 3c 1a 93 02 bd 98 04 4d bd
       0.004087622 0.021255575 -0.03187857 -0.05005321
0003b0 1d 2e 89 3c 37 4b 8a bc 07 b8 0b bc 9d 7a cb 3c
       0.016745621 -0.016881568 -0.008527762 0.02483874
0003c0 e0 e3 49 3d a7 9b 60 bd bb c2 8c bc c3 d4 89 3d
       0.049289584 -0.05483594 -0.017182698 0.06730034
0003d0 75 6a c1 3d d9 97 40 bc c4 da d7 3c f8 3c 92 bc
       0.09444133 -0.011754953 0.026349433 -0.017851338
0003e0 7f 2e 18 3d 6b e2 55 3d d3 ed a4 3d 33 89 4c 3d
       0.037153717 0.052217882 0.08053174 0.04993553
0003f0 e7 10 20 3d 10 6e 71 3c 43 24 34 bd c2 1a 12 bd
       0.03907862 0.014735714 -0.043979894 -0.03567005

conv2.bias f4 [64]
000000 43 07 35 3d dc 18 a1 3c cc d7 18 3c 5d 50 ce 3c
       0.04419638 0.019665174 0.009328794 0.025184805
000010 f9 6d 3a bd 63 65 00 3d 70 f8 c9 bb 27 4d 99 b9
       -0.045515034 0.03134669 -0.0061636493 -0.00029239917
000020 9d 80 68 3c 20 88 2f bd ac f4 01 bd ac 3c 31 3d
       0.01419082 -0.04285443 -0.031727478 0.04327075
000030 14 e4 30 bd 83 20 5c 3d 36 d4 13 3c a9 37 00 bd
       -0.043186262 0.053741943 0.009022763 -0.03130308
000040 89 b8 8e 3b 01 19 45 3d 93 cb 17 3d e6 7a 11 3d
       0.0043554944 0.04811955 0.037059378 0.035517596
000050 df 2b 42 3d 25 58 1e bd 4b 85 d5 3c 37 b0 6b 3d
       0.04740512 -0.03865828 0.026064536 0.0575411
000060 d3 b8 0a 3d c7 ce e5 3c ef d7 44 bc 83 43 7f 3c
       0.03386767 0.0280527 -0.012014373 0.015580061
000070 97 39 3b 3d b1 98 57 3d c8 f1 a7 3c e5 b1 5f 3d
       0.04570922 0.052635852 0.020501032 0.054613013
000080 c7 41 5b bd b0 f3 f3 3c 91 55 64 3d 1a 96 92 3c
       -0.053529527 0.029779285 0.055745665 0.01789384
000090 2f 84 32 bd 84 a4 a4 bc 5f 1d ab 3c 73 0e 0e bd
       -0.04358309 -0.020097978 0.020888029 -0.03468175
0000a0 71 e9 18 3d 50 44 6e bd 38 bc c5 3c 53 24 37 3d
       0.037332002 -0.058170617 0.024137601 0.044712376
0000b0 47 0d 29 3c 80 3d 4c bc 6f 98 64 bd 2d 48 4f bd
       0.010318107 -0.012465835 -0.055809435 -0.05060594
0000c0 a5 17 28 3d d0 b5 64 bc c0 72 ab bc 71 79 0e bd
       0.041038174 -0.013959363 -0.02092874 -0.034783784
0000d0 3f b6 1f bd c9 9f 46 bd 90 7f 63 3d 10 7e 2d 3d
       -0.038992163 -0.048492227 0.055541575 0.04235655
0000e0 ec 8b 02 bc 69 10 a1 bc df 00 5c bd f3 92 ca 3c
       -0.00796793 -0.019661145 -0.05371177 0.024728274
0000f0 79 94 b8 3c 0d 53 91 bc 59 ae 10 bd 15 b3 05 bb
       0.022531735 -0.017739797 -0.03532252 -0.002040093

fc1.weight f4 [64, 2304]
000000 9b e6 c6 bc 2c 08 b1 3b 0d cc 78 3a 7c cc 56 bc
       -0.024279883 0.0054025855 0.0009490855 -0.013110276
000010 c0 8b 00 bb 8f 92 20 ba bb f8 6e 3a ba f3 a9 bb
       -0.0019614547 -0.00061253546 0.0009116043 -0.005186525
000020 e8 97 8a 3c 0d 8b 03 3c db cd 42 bb 9c 3b 7e bc
       0.016918138 0.008028758 -0.002972475 -0.015517142
000030 2b 33 77 bc ec 27 b3 3c 49 09 a7 3c 50 44 d5 3a
       -0.015087883 0.021869622 0.02039017 0.0016270969
000040 1f 12 91 3b eb b6 2d 3c 2f 9d 5b bc bd a7 92 bc
       0.004427209 0.010602693 -0.013404175 -0.01790225
000050 6f f8 9f bc 0d 2e a7 3b 8d 7e 7d bb 5b 4a 2b bc
       -0.019527642 0.005101925 -0.0038680166 -0.010454739
000060 43 9f ea bc 09 17 89 bc 45 38 12 bc 93 ed af ba
       -0.028640395 -0.016734617 -0.0089245485 -0.0013422243
000070 8b e7 2b bc 09 cd 86 bc 8f 8f c2 bc 8d ed fe bc
       -0.010492216 -0.01645519 -0.023750095 -0.031119132
000080 18 d7 6b bc 25 69 f6 bc e4 17 96 bc a5 9d b6 bc
       -0.014394544 -0.030079434 -0.018321939 -0.022291968
000090 a5 cb 5b 3c 6c 97 0f bc 77 ba 4b bc 78 61 22 3c
       0.013415252 -0.008764129 -0.012434593 0.009910934
0000a0 59 83 80 bc 14 36 63 3c 19 2c 00 bc 84 1b 13 bc
       -0.015687631 0.013867874 -0.007823014 -0.008978728
0000b0 f3 c3 b8 3c 57 ac 9c 3a f4 23 12 3b f8 d6 4f 3c
       0.022554373 0.0011953217 0.0022299262 0.01268553
0000c0 ec 63 88 bb 98 19 19 bc 57 24 b1 3c cb f3 02 3d
       -0.0041623022 -0.009344481 0.021623774 0.03197078
0000d0 8f 60 e3 3c 10 d9 d9 3c a3 17 a9 3c fb 39 29 bc
       0.027756004 0.026592761 0.020641154 -0.010328765
0000e0 79 29 1e 3c 89 81 6f 3c 93 ae 58 bc 7f 92 4f ba
       0.009653443 0.014618286 -0.0132252155 -0.0007918253
0000f0 c0 f0 25 bc 40 e2 3e 39 23 95 38 bc b1 a1 9b 39
       -0.0101282 0.00018204097 -0.011266026 0.00029684373
000100 ba 71 9d 3b 7d 3e 08 bc 4e c7 07 bc 53 bc 97 bc
       0.004804817 -0.00831568 -0.008287264 -0.018522417
000110 97 00 d0 bb 2d f0 94 3b d3 ec 26 bc 89 53 69 bc
       -0.0063477266 0.0045452327 -0.010188299 -0.014241108
000120 9f dd 01 bc 21 20 50 3c 5d c9 d9 bb 91 99 9b 3c
       -0.007926374 0.012702973 -0.006646319 0.018994125
000130 00 b4 cb b7 fd 6b f3 bb 1f cb 8e bc 51 96 57 3c
       -2.4283305e-05 -0.0074286447 -0.01743084 0.013158397
000140 f9 83 5f 3c ab 02 1a bc a0 7a 68 bb d1 2a 0c 3c
       0.013642305 -0.00940005 -0.003547348 0.00855513
000150 0f 3d 3a bc ff 21 0e 3c bb 79 83 bc 2f 8d 2d bc
       -0.011367097 0.0086750975 -0.016049257 -0.010592743
000160 c0 96 14 3b 40 3e fa b9 7b 54 9e 3c 50 8e 8e bc
       0.0022672862 -0.00047730096 0.019327393 -0.017401844
000170 a9 f4 50 3c f9 24 9a bc c3 72 84 bc 50 0b 62 bc
       0.012753644 -0.018816458 -0.016168004 -0.013796642
000180 28 09 09 3c b9 d5 a5 3c 80 8d a3 3b 0b ff 8c bc
       0.008363999 0.020243512 0.0049912333 -0.017211458
000190 b8 c2 20 bc e8 0b 1b 3c 0d 60 8c 3c d0 64 b7 3b
       -0.00981205 0.009463288 0.017135644 0.0055967346
0001a0 90 d1 fe 3a 1c 77 ad 3b 70 c4 df bb 54 db 84 bc
       0.0019441117 0.00529374 -0.006828837 -0.016217865
0001b0 a2 89 82 3c 76 be 0d bc 0f 3d 3c bc 59 5d af 3c
       0.015934769 -0.008651366 -0.011489167 0.021406816
0001c0 49 71 bb 3c 1f ac 30 3c 84 fd 36 3c 38 fb 6a 3c
       0.022881167 0.010783224 0.011168841 0.014342122
0001d0 d9 fd 56 3c a8 48 d5 bb 47 a2 b2 3b 07 2c 27 3c
       0.013122045 -0.0065089054 0.005451474 0.010203368
0001e0 37 43 21 bc 18 88 48 bc 4d bd a0 bc 13 3a b5 3b
       -0.009842685 -0.0122394785 -0.019621516 0.0055306046
0001f0 f0 3d 7c bc ab de 89 3c 3b d4 9f bc 3f 2b ab 3c
       -0.015395626 0.01682981 -0.019510379 0.020894645
000200 a3 20 bd bb b4 fc 5b 3c 97 e4 9e 3c a3 2b 85 bc
       -0.005771713 0.013426948 0.01939611 -0.01625616
000210 55 35 ab 34 e7 51 1e bc a4 75 13 bc 3d 2e 9a bb
       3.1890036e-07 -0.009663082 -0.009000216 -0.004705219
000220 73 1c 88 39 4f 1c 27 bb 4b 9d b0 bb 12 e3 0d bd
       0.00025961138 -0.002549905 -0.0053898445 -0.03464038
000230 40 6e 59 bc 5b e7 5f bc e8 34 ae bc ab 4e 8b 3b
       -0.013270915 -0.013665999 -0.021265462 0.0042513213
000240 0d ff f1 bb 90 62 4a bc 40 f1 a3 bb 1c d4 a9 bb
       -0.0073851408 -0.012352601 -0.0050031245 -0.005182756
000250 43 d2 9e 3c 23 87 5c bc a0 d7 73 bb af cd 6e bc
       0.01938737 -0.0134599535 -0.003720738 -0.014575406
000260 69 f7 41 3c 41 f6 8e 3c 18 24 0e 3b 97 30 80 3c
       0.011838772 0.017451407 0.0021688994 0.01564817
000270 78 26 33 bb c7 28 5e bc ad e9 d8 bb a0 ab 49 bb
       -0.0027336162 -0.013559527 -0.006619653 -0.0030772462
000280 ab df 50 bc 91 d9 4d 3c 1c bf a0 3b 07 90 fe bb
       -0.012748639 0.012564079 0.0049055945 -0.0077686342
000290 b8 a5 54 bb 79 41 4b 3c 58 27 0b bc 09 97 06 3c
       -0.003244741 0.012405747 -0.008493267 0.0082147205
0002a0 40 8b 14 bc e5 d1 a6 3c 7d b6 f5 bb 89 e7 50 3c
       -0.009066403 0.020363757 -0.007498561 0.012750515
0002b0 00 41 18 3b 00 87 e6 38 ff 36 a5 3c 01 d9 2b 3c
       0.0023232102 0.000109924 0.020167826 0.0104887495
0002c0 b0 f5 a8 ba ff 2b 1a 3c e4 18 8c bb ec d2 2e 3b
       -0.0012890603 0.009409904 -0.004275428 0.0026676012
0002d0 58 51 6c bc 2d 31 cc bc 68 e1 cc b7 c7 53 8b bc
       -0.014423691 -0.024925793 -2.4423658e-05 -0.017007722
0002e0 69 24 6c bc 43 68 46 bc 71 75 89 3a 2b 64 9b bc
       -0.014412978 -0.012109819 0.0010487271 -0.018968662
0002f0 a9 09 8b 3c 18 58 64 bb 0a d3 8f 3b 35 2a 91 3c
       0.01697238 -0.0034842547 0.0043891715 0.017720321
000300 2c d9 c8 3b a0 af 8e 3c d3 f6 30 3b 2b 2c 27 3b
       0.0061294045 0.017417729 0.0027002587 0.0025508504
000310 27 40 ba bb e7 eb 96 3b 47 b5 3b 3a f3 9a 14 bb
       -0.005683917 0.0046057585 0.00071604963 -0.0022675365
000320 c7 eb ac bc d5 a6 52 3c 35 e6 c0 3b 30 67 00 bc
       -0.021108521 0.012857159 0.005886818 -0.007837102
000330 63 69 04 bd d0 9f cc bc 4f eb ad bb 6d db c4 bc
       -0.032327067 -0.024978548 -0.005307592 -0.024030412
000340 9f b2 4b bc dd ae 62 b9 04 c0 c5 bc 9b 0c a1 bc
       -0.012432723 -0.00021618181 -0.024139412 -0.019659331
000350 68 b3 d3 ba 57 4c 4d bc 9f 47 d1 3b b1 f1 64 bc
       -0.001615149 -0.012530408 0.0063867117 -0.013973639
000360 a5 93 25 bb e3 55 a9 bc 7f e2 0e bc 73 5f 19 3c
       -0.0025265005 -0.020670837 -0.008720993 0.009361136
000370 1f 2c 01 3c b7 13 99 bc f5 93 37 bb 1f 50 8d bc
       0.007884054 -0.018686159 -0.0028011773 -0.017250119
000380 b5 78 9a bb 2c ec 4e 3c cf cf 75 3c af 0f a3 3b
       -0.0047140964 0.01262955 0.015003159 0.004976235
000390 af 22 89 bc 22 cb 8c bc ff e3 86 3c df 81 99 bc
       -0.016740171 -0.017186705 0.016466139 -0.018738685
0003a0 f7 cf 8f bb ee 7c a1 bc ac a7 91 bc cc a1 dc 3a
       -0.004388805 -0.019712891 -0.017780147 0.0016832887
0003b0 69 dd 31 bb a8 ff a2 3a 6c ba b8 bb 17 1d 81 bc
       -0.0027140027 0.0012435811 -0.0056374576 -0.015760941
0003c0 da 2a a8 bc cd b7 fe bb 6d f3 88 bb a9 60 1f bc
       -0.020528246 -0.0077733756 -0.0041794092 -0.009727635
0003d0 a1 d3 0f 3b 6c 8b 8c 3b cb bb 26 bd ed 00 1f bd
       0.002194621 0.0042890813 -0.040706437 -0.038819242
0003e0 c1 8f bc bc 11 ef 91 bc 81 6e 13 bc 3d 99 9c bc
       -0.023017766 -0.017814191 -0.008998514 -0.019116038
0003f0 60 bd ce bc db b3 52 bb 27 29 cb bb fb 47 41 3c
       -0.025236785 -0.003215066 -0.006199974 0.011796947

fc1.bias f4 [64]
000000 a3 c5 c9 3b 25 46 16 bc b8 9e 67 3b e0 00 2f bb
       0.0061575933 -0.009171997 0.0035342406 -0.0026703402
000010 52 9c 03 3c bb 10 82 3b ec eb 42 bc f7 67 97 bc
       0.008032875 0.0039692796 -0.0118970685 -0.018482191
000020 bb b5 6c bc 79 be 2b 3b c4 06 aa 3b b0 92 2d 3c
       -0.014447625 0.002620606 0.005188795 0.010594055
000030 b1 f5 c4 3c a0 c1 87 3c 2b bd 19 ba b3 d1 ca 3b
       0.024042936 0.01657182 -0.0005864675 0.006189549
000040 cf 90 46 38 31 58 06 bc 80 5a 48 3c 23 c8 aa 3b
       4.7341742e-05 -0.008199737 0.012228608 0.0052118464
000050 5c 1d b0 3c bb 8e 84 3c 71 b7 8c 3c c3 9c a1 bc
       0.021498375 0.01618134 0.017177315 -0.01972807
000060 29 cd 22 bc 87 b1 99 bb ee 0d 8b bc 1f 51 8d bc
       -0.009936609 -0.0046903524 -0.016974416 -0.017250596
000070 6b 3b fa b8 f8 e5 5a bb 1f b9 21 3c 3f 49 83 3c
       -0.000119319964 -0.0033401232 0.009870796 0.016026137
000080 d1 61 67 bc b1 4c db bb ff 7c 14 3b 9d 3d 62 3c
       -0.014122442 -0.006692492 0.0022657511 0.013808635
000090 58 10 e9 39 28 25 22 3b d3 50 2f 3c 79 34 a8 bb
       0.000444534 0.0024741385 0.010700422 -0.0051332084
0000a0 05 78 93 3c 06 b9 05 3c 05 46 43 bc c4 5c 98 3c
       0.018001566 0.008161789 -0.011918549 0.018598922
0000b0 28 35 99 bc 65 1f 80 3c e9 d9 83 bc 69 0e 07 bc
       -0.018702105 0.01563997 -0.016095119 -0.008243182
0000c0 71 06 29 bc 5c bf 85 3c dd 52 85 3b 90 7a 3e bc
       -0.010316477 0.016326599 0.004068716 -0.011625901
0000d0 00 ca 9b bb ab 85 a9 3c 87 aa 95 bc 20 d1 02 3b
       -0.004754305 0.02069362 -0.01826979 0.0019961074
0000e0 15 67 c3 bb 62 9a 86 bb e1 5b ce bb ad 1e db 3c
       -0.005963216 -0.0041077593 -0.006297574 0.026748026
0000f0 c1 d3 83 bb 27 0d d0 bb a0 da ab 3a 14 3d b6 3b
       -0.0040230458 -0.006349224 0.001311142 0.0055614803

fc2.weight f4 [10, 64]
000000 f4 c5 fd 3d 1c ce 79 3d 2f 44 d1 bd 04 94 01 be
       0.12391272 0.060987577 -0.10218083 -0.1265412
000010 91 46 a8 3d 68 8f 2a 3c f4 e4 b5 3d d3 7b a9 3c
       0.082165845 0.010410167 0.0888156 0.020688927
000020 a7 e0 eb bd 64 5e 02 3e 3b 98 32 bd 6b 00 a7 3d
       -0.115174584 0.1273132 -0.04360221 0.081543766
000030 77 a1 a0 bd af 94 fd bd a5 e8 e8 bd d8 ac 8f 3d
       -0.07843297 -0.12381875 -0.113724984 0.07015389
000040 4b 5c d2 bd eb c4 c2 3d 1b fd a8 bc 12 de a7 3d
       -0.1027151 0.09510215 -0.020628503 0.081966534
000050 23 38 5c bc ff 0e 26 3d db 3c 2e bc 79 52 11 bd
       -0.013441118 0.040541645 -0.010634626 -0.035479043
000060 1d 23 52 3b 36 12 0a 3e 68 ee b1 3c 73 95 68 3d
       0.0032064386 0.1348351 0.021720126 0.05678315
000070 97 e2 1b bd 11 58 4b 3d f1 85 4d 3d dd 6e b9 3d
       -0.03805789 0.049644534 0.050176565 0.090543486
000080 dd 9b dd bd e4 92 a9 bc 01 75 0f 3e bf cd 95 bc
       -0.10820744 -0.020699926 0.14009477 -0.018286584
000090 60 df 80 3d cc 8f 35 bd 81 4a 72 3d 73 47 2f 3d
       0.062926054 -0.04432659 0.059153084 0.04279275
0000a0 73 c5 15 bd f3 c1 43 3d 33 22 0b be 0f ee 25 3d
       -0.036565255 0.047792386 -0.13587265 0.040510233
0000b0 e3 4a 80 bd 67 10 36 bd 3b ea 7a 3c a5 da 53 3d
       -0.062642835 -0.044449236 0.015314634 0.051722188
0000c0 81 66 71 bd d3 3a b0 3d b4 40 70 3d 37 f9 c4 bd
       -0.058935646 0.0860497 0.058655456 -0.096178465
0000d0 3d 39 fa bd f7 1f b6 bd 5f b4 11 be a9 15 80 3d
       -0.122179486 -0.088928156 -0.14228962 0.06254131
0000e0 71 89 0e 3e c3 fa 0b be c8 11 20 bd 48 c0 5b bc
       0.13919617 -0.13669877 -0.039079458 -0.013412543
0000f0 53 7c fa bd 99 43 91 3d 04 8a f9 bd 59 76 7d 3d
       -0.12230744 0.07092971 -0.121845275 0.061880443
000100 c8 f3 09 be e0 19 d4 3b f8 4e e3 3d af 09 01 ba
       -0.13471901 0.006472811 0.110990465 -0.00049224024
000110 e3 4d 5e bc 69 78 bd 3a b7 3e 97 3d 25 11 c0 3c
       -0.013568374 0.0014455441 0.07385009 0.023445675
000120 f9 72 d3 3d fb 96 5a 3d d5 94 c3 3d b1 cf 17 3d
       0.10324664 0.053366642 0.09549872 0.037063304
000130 95 6b 1e be b0 2e 9f 3d fd 4c d7 3d b7 c4 06 3e
       -0.15470727 0.07772577 0.10512731 0.13160978
000140 a4 be cb bb 47 ea 83 bc 81 31 b0 3d c5 5c c8 3c
       -0.0062177945 -0.016102923 0.08603192 0.024458298
000150 3d 4a fe bd eb 10 db 3a 4c 2f fe 3d 58 bd a2 bc
       -0.124165036 0.0016713416 0.12411365 -0.019865677
000160 00 db 8e bd 78 7b 91 3d 72 b5 00 3d eb e5 4b bd
       -0.06975365 0.07103628 0.03142304 -0.049779814
000170 a1 a9 06 be 35 54 59 bd cb b8 bc 3c a1 be 9f bc
       -0.13150646 -0.05305882 0.023037335 -0.019500079
000180 5d 0c e2 bd 51 e1 db bd 00 ef 32 3d d7 fe b2 bd
       -0.11037514 -0.10736335 0.04368496 -0.08740013
000190 8d c4 09 bd 56 f9 84 bd 1e 51 17 bc f3 0c ce 3d
       -0.03363471 -0.064928696 -0.009235648 0.100610636
0001a0 cf 72 9a 3a 2c 31 03 bd e5 64 73 3d 77 1f 98 3d
       0.0011783483 -0.032029316 0.059422392 0.074278764
0001b0 08 2f dc 3d b1 ef 0c 3e bf fb b9 3d 4c da 28 bc
       0.10751158 0.1376331 0.0908122 -0.010305952
0001c0 56 69 88 3d 34 b2 ab bd ab 40 27 bd 10 a5 d8 bd
       0.06660716 -0.08383599 -0.040833157 -0.10578358
0001d0 f0 29 ef bd 2b b9 45 bd 87 93 7f 3d b0 1a ad bd
       -0.11677921 -0.048272293 0.062396552 -0.08452356
0001e0 70 5d 3e bd d6 24 a7 3c 2b 08 0a be 06 ba 1c bd
       -0.046475828 0.020403307 -0.13479678 -0.038263343
0001f0 cf 9b a2 bd fb 67 77 bd 04 c8 d1 3d fc 64 ac 3d
       -0.079398744 -0.060401898 0.10243228 0.08417699
000200 44 31 2f bc 59 68 2f bd 1c ae 5e bc 49 31 01 3e
       -0.010692898 -0.042824123 -0.013591316 0.12616457
000210 eb c7 9f 3d 5b f7 94 bc 0c c2 48 3d 6c cd 42 3d
       0.07801803 -0.018184355 0.049013183 0.047559187
000220 77 4a 32 3d 73 ef d0 bc 6b 19 36 3d 67 02 63 3d
       0.043528046 -0.025504803 0.044457834 0.055422213
000230 4b ce 6c 3d c3 f7 c9 3d 04 5c c4 3d 7b 8c 0d be
       0.057813924 0.0986171 0.09587863 -0.1382312
000240 9b eb ec 3d d4 92 ae bd bd f2 d4 bd c1 ab d2 3d
       0.11568376 -0.08524099 -0.10397861 0.10286666
000250 e1 61 03 3e 3f e6 58 bd 10 c4 cb 3c ab 49 d7 bd
       0.12830307 -0.052953955 0.024873763 -0.10512098
000260 ad ef 05 be 49 08 d3 bd fd bd 9e bd ed 2a 4c bd
       -0.1307971 -0.10304315 -0.07751081 -0.049845625
000270 c9 3f db 3d bf c3 55 3d c0 8f d9 3b 53 5b ad bd
       0.107055254 0.05218863 0.006639451 -0.08464684
000280 7b e9 70 3d d3 ba 7d bc 5b 5b c0 3c 8b 68 f3 bc
       0.058816414 -0.015486437 0.023481062 -0.029712936
000290 f4 cc ec 3d 48 a3 0a 3d b3 0f 5b 3c fb 5b a1 3c
       0.11562529 0.033847123 0.013370442 0.01969718
0002a0 e8 44 a3 bd d9 e6 02 be 55 8b f4 bd e9 ae 83 3c
       -0.07972127 -0.12783374 -0.11940638 0.016074615
0002b0 af 9b fd 3d 9d cb 8e bb 15 cb a3 3d 1c bb fb 3d
       0.1238321 -0.0043577687 0.07997719 0.12291548
0002c0 75 02 d8 bd 8c 1c f8 3d 4b d3 aa 3d 23 ec 97 bc
       -0.10547344 0.1211482 0.08341082 -0.018545216
0002d0 80 fc c0 3d f8 ba 07 3e 67 d3 6c bc 5f 45 4f 3d
       0.094231606 0.13254917 -0.014454699 0.050603267
0002e0 f8 66 c6 bd 3c 08 ee bb 0b 09 af b9 c0 e3 d3 3d
       -0.096876085 -0.007264165 -0.0003338534 0.10346174
0002f0 51 f8 21 3d 10 0f f1 3d 66 7e 80 bd 08 7b 1a 3d
       0.039543454 0.11770451 -0.062741086 0.037714988
000300 dd 4a e2 3d d9 c7 5c bc 8b 08 94 3d 8d 3a 32 bd
       0.11049435 -0.013475382 0.07228192 -0.04351287
000310 f4 72 e4 3d f3 c9 0f bd 6f 44 f1 bd 98 fe ea 3d
       0.11154738 -0.035104703 -0.11780631 0.11474341
000320 23 82 84 3d 2a 64 8f bc 98 5d 61 bd 85 dc f9 3d
       0.06470134 -0.017503817 -0.0550209 0.12200264
000330 40 04 d8 3d c3 7d 86 3d 4b 6b f4 bd ed 3c 45 3d
       0.105476856 0.06566956 -0.11934527 0.048153806
000340 37 64 8d bc 60 50 25 bc 6b 2e c5 bc e7 ca c0 bd
       -0.0172597 -0.010089964 -0.024069985 -0.094137006
000350 7d 72 0e 3d 18 0c 61 bc 33 02 f0 bd c1 05 00 3d
       0.034777153 -0.0137357935 -0.117191695 0.031255487
000360 3d cd 82 3d 55 21 e4 bd e7 52 c3 3c 73 d2 08 bd
       0.06386802 -0.1113917 0.023843242 -0.033403825
000370 d5 ca 3f 3c 31 d9 a8 bd 41 f2 26 3d 4b b9 95 bd
       0.011706074 -0.08244551 0.040758375 -0.073107325
000380 d1 81 90 3d bb cb 1a bc 95 f4 b2 bd b3 d9 a3 3d
       0.070560105 -0.009447987 -0.087380566 0.08000507
000390 08 d1 d5 3d f8 50 fe 3d 53 28 78 bd a3 3b a8 3d
       0.1044026 0.12417787 -0.06058533 0.082145
0003a0 88 cc 5d 3d d9 d1 72 3c bf 16 d1 bc 30 62 61 3c
       0.054150134 0.014820539 -0.025523541 0.01375632
0003b0 fb d3 e5 bd 9d a1 ea bd b4 61 e8 3c 45 18 8b bd
       -0.11222073 -0.114566065 0.028366901 -0.067917384
0003c0 cc c5 ac 3d 48 37 fb 3d 8c bb c2 bd 21 c4 8e bd
       0.08436164 0.122664034 -0.09508428 -0.06971002
0003d0 90 a1 82 bd 51 fc 15 bd 1b 37 99 3d 10 c8 08 3c
       -0.06378472 -0.03661758 0.07481214 0.00834848
0003e0 50 41 90 3c c7 fc b9 bc a0 e1 57 3d 0d 9f ed 3d
       0.017609268 -0.022703541 0.052705407 0.11602602
0003f0 f3 f1 4c 3b 59 dd 95 bd 82 2b 04 3e e6 5d 04 be
       0.0031272143 -0.07317609 0.12907222 -0.12926444

fc2.bias f4 [10]
000000 89 42 4d 3c 15 df ee bd 2f 6f 9a bd cd 6f 34 bd
       0.01252807 -0.11663643 -0.07540738 -0.044051934
000010 93 d4 61 3d f3 4d f2 bc 24 2c a3 bd 64 2b 11 bd
       0.055134367 -0.029578185 -0.079674035 -0.03544177
000020 4d 2f 02 3d 5f cf 8a 3d
       0.03178339 0.06777834
